model_save/actor.pth (torch, 19783 bytes, 5 tensors)

fc1.weight f4 [64, 3]
0	0x3e049e61	0.12951042
1	0x3efe3379	0.49648646
2	0xbf0b8e2a	-0.545138
3	0x3e52584e	0.20541498
4	0x3e7f913a	0.24957743
5	0xbf2500b1	-0.6445418
6	0xbebb584b	-0.365908
7	0xbf525262	-0.82156956
8	0xbea10bd1	-0.31454328
9	0x3db07e8b	0.08617886
10	0x3f35d70a	0.7103125
11	0x3ea6da2b	0.32588324
12	0xbeb63cc3	-0.35593233
13	0xbed2d5a9	-0.41178635
14	0xbe8d877d	-0.27642432
15	0x3ec01ceb	0.37522063
16	0xbedf61cc	-0.436293
17	0xbefb58ac	-0.4909109
18	0x3de07afa	0.10960956
19	0xbf1618b4	-0.58631444
20	0x3d17cd74	0.03706117
21	0x3eb5bff2	0.35498005
22	0x3e81921a	0.2530678
23	0x3efe1332	0.4962402
24	0xbe84c6cd	-0.25932923
25	0x3dbf7592	0.09348597
26	0x3edfe3fb	0.43728623
27	0x3ee71a35	0.45137182
28	0xbf7bdba3	-0.98382014
29	0xbeb98d39	-0.36240557
30	0x3defe3ef	0.11713397
31	0xbee6458b	-0.44974932
32	0x3f177727	0.5916619
33	0xbf0ac753	-0.54210395
34	0xbeee63b1	-0.46560434
35	0x3e8f7c33	0.28024444
36	0xbf29ec85	-0.66376525
37	0x3f2d3071	0.6765204
38	0xbef158f2	-0.47138172
39	0x3f2e7314	0.68144345
40	0x3f4ead35	0.8073304
41	0xbe4066c2	-0.18789199
42	0x3e38a703	0.1803246
43	0x3e15a447	0.14613448
44	0xbf02c2aa	-0.51078284
45	0x3f24f80d	0.64440995
46	0xbf1e1ebf	-0.61765665
47	0xbe8ed3f0	-0.2789607
48	0xbf64841e	-0.89264095
49	0x3f06fde8	0.5273118
50	0x3e53936c	0.20661706
51	0x3f2632b3	0.6492111
52	0x3e44cf3f	0.19219683
53	0x3eeb7d47	0.45994017
54	0x3ed6f668	0.41984868
55	0xbf5b2a8c	-0.85611796
56	0xbdfaf6fc	-0.1225414
57	0x3e7c66bb	0.24648564
58	0x3cd50216	0.026001971
59	0xbe5dc4c8	-0.21657097
60	0xbeef8875	-0.46783796
61	0xbe9c9da2	-0.30589014
62	0x3f1218bc	0.5706899
63	0x3f3c2f7a	0.73509943
64	0xbe5d87c6	-0.21633825
65	0x3f058f37	0.52171654
66	0x3eb20c39	0.3477495
67	0xbedc87b9	-0.43072298
68	0x3e4a9956	0.19785056
69	0xbea76513	-0.326943
70	0xbeb88ce6	-0.36044997
71	0x3f184f15	0.5949567
72	0x3e8a9200	0.27064514
73	0xbe94ef6d	-0.29088917
74	0x3f2092f2	0.6272422
75	0x3ec25c4b	0.3796104
76	0x3d3831b0	0.04496926
77	0x3ed18e29	0.40928772
78	0xbeaa1205	-0.33216873
79	0x3e051533	0.12996368
80	0xbe98c888	-0.29840493
81	0x3eeed5ea	0.46647578
82	0x3e8000b7	0.25000545
83	0x3ed0b8d9	0.40766028
84	0x3d91963d	0.07108734
85	0xbf8867ea	-1.0656712
86	0x3d98d88a	0.074631765
87	0x3e5842a5	0.21119173
88	0xbef46514	-0.47733366
89	0xbea0cf6f	-0.3140826
90	0xbf34579d	-0.7044619
91	0x3f13b32a	0.5769526
92	0x3e8ef386	0.2792017
93	0x3edb6a4f	0.42854545
94	0x3e42d8a9	0.19027962
95	0xbe398eed	-0.18120928
96	0xbeccb2f1	-0.3998027
97	0xbcdcdda9	-0.026961165
98	0xbe48f0c7	-0.196231
99	0xbf039d1a	-0.5141159
100	0xbe758d5d	-0.23979707
101	0x3f268569	0.6504732
102	0x3ecddcf8	0.40207648
103	0x3e859e98	0.2609756
104	0xbf149416	-0.5803846
105	0x3d848bce	0.06471978
106	0xbedf81da	-0.43653756
107	0x3efb6d31	0.49106744
108	0xbf8fcc72	-1.1234267
109	0x3eeadee2	0.4587317
110	0xbdefab5d	-0.11702607
111	0x3e5d75df	0.21626996
112	0xbf0bdcf3	-0.54634017
113	0xbe6428a4	-0.22281128
114	0xbc7af358	-0.015316807
115	0x3fb38a6a	1.4026616
116	0x3e615636	0.22005543
117	0x3f174523	0.5908987
118	0xbe1b68e6	-0.15176734
119	0xbe9f1662	-0.31071764
120	0xbf01a153	-0.50636786
121	0xbf2d55c5	-0.67709
122	0xbe979e47	-0.29612944
123	0xbe8235ff	-0.2543182
124	0x3ed28e38	0.4112413
125	0xbec7de59	-0.39036825
126	0xbf2b623e	-0.6694678
127	0x3f56ab2f	0.83854955
128	0xbcec151a	-0.028818656
129	0xbe73ebb1	-0.23820378
130	0xbec5cfd6	-0.3863513
131	0x3f275871	0.65369326
132	0x3e86f4f2	0.26358753
133	0xbf41abec	-0.75652957
134	0xbeae5156	-0.3404643
135	0xbf41fd1b	-0.75776833
136	0x3eb66e4b	0.35631022
137	0x3f1dbad8	0.61613226
138	0x3e84b74c	0.25921094
139	0xbf453642	-0.77035916
140	0xbefb68d5	-0.49103418
141	0x3f3b5c61	0.73187834
142	0x3ea33bd8	0.31881595
143	0x3ea646f3	0.32476005
144	0x3d82be27	0.06383925
145	0x3d890538	0.066904485
146	0xbedc3bee	-0.43014473
147	0x3f1ffb2b	0.62492627
148	0x3f31215b	0.6919152
149	0x3eaca385	0.33718506
150	0x3f3e5b75	0.743583
151	0x3f325f22	0.6967641
152	0x3edbd1c7	0.42933485
153	0xbeb56c74	-0.35434306
154	0xbe91c633	-0.28471527
155	0xbee99f44	-0.45629323
156	0xbe4bed38	-0.1991471
157	0x3f3d6f3d	0.7399786
158	0x3e0baa5d	0.13639207
159	0xbf30c1a3	-0.69045466
160	0xbf560e28	-0.8361535
161	0xbea0b54e	-0.31388324
162	0xbf056b03	-0.5211641
163	0xbf117d15	-0.56831485
164	0xbef7f759	-0.484309
165	0x3ef6eab2	0.48225933
166	0xbea4060e	-0.3203587
167	0x3efb2dee	0.4905848
168	0x3efa3fc9	0.4887679
169	0x3f25bf76	0.6474527
170	0x3ebcb670	0.3685794
171	0x3f0c717f	0.5486068
172	0x3ea03e57	0.31297562
173	0x3e1faf0d	0.1559412
174	0xbefb977d	-0.49139014
175	0xbf4ace11	-0.7922068
176	0xbebc711f	-0.36805055
177	0x3ea9b490	0.3314557
178	0xbf111cd5	-0.5668462
179	0xbdacce42	-0.08437778
180	0x3e512600	0.20424652
181	0x3f18f8e9	0.59754807
182	0xbeee4da5	-0.46543613
183	0xbe7b9386	-0.24567994
184	0xbf3d2e9d	-0.7389925
185	0x3d129038	0.03578207
186	0xbc160590	-0.0091566
187	0x3ea1fc65	0.31637874
188	0x3e202d5f	0.15642308
189	0x3efd47ac	0.49468744
190	0x3f342351	0.7036639
191	0x3d706be9	0.05869666

fc1.bias f4 [64]
0	0x3e86aceb	0.263038
1	0xbe2b1859	-0.16708507
2	0x3f16b005	0.58862334
3	0x3cae04a4	0.021242447
4	0x3ebf9785	0.37420288
5	0xbed75075	-0.4205357
6	0x3ecd0742	0.400446
7	0x3f187492	0.5955287
8	0x3f1a831f	0.60356325
9	0xbeb9f801	-0.36322024
10	0x3e23bc3c	0.15989774
11	0xbedab7b7	-0.42718288
12	0x3d6cfcde	0.05785834
13	0xbe4d0542	-0.20021537
14	0xbe195937	-0.14975439
15	0xbf076864	-0.5289366
16	0xbe928738	-0.2861879
17	0xbf1b9953	-0.6078083
18	0x3e9ef7ec	0.31048524
19	0x3eff322a	0.4984296
20	0x3e0708c7	0.13186942
21	0xbe44087d	-0.19143863
22	0x3eb7ad6b	0.35874495
23	0x3f1be2db	0.6089303
24	0x3e1d7a0d	0.1537859
25	0xbed8a3f3	-0.42312583
26	0xbcf4d0cb	-0.029884716
27	0xbf018ea9	-0.5060831
28	0x3ecc1bd9	0.39864996
29	0x3cd480e2	0.025940362
30	0x3edd1b79	0.43185022
31	0x3ecb476d	0.3970293
32	0xbde83afb	-0.11339375
33	0xbeb1a34f	-0.34694907
34	0xbe464086	-0.19360551
35	0x3d132a2b	0.035928886
36	0x3d823e30	0.063595176
37	0xbe2ec3ec	-0.17066926
38	0x3e5153e2	0.20442155
39	0x3e891fa1	0.26781943
40	0x3ec148e8	0.37750936
41	0xbee31484	-0.4435159
42	0x3dbb8cd9	0.09157724
43	0x3eac6c88	0.33676553
44	0x3ea33fb0	0.31884527
45	0xbe4b2d79	-0.19841565
46	0xbe01c1c2	-0.12671569
47	0x3e777354	0.24165088
48	0xbebdefa1	-0.37096885
49	0xbe763119	-0.24042167
50	0xbee89c06	-0.45431536
51	0x3e8881ed	0.26661626
52	0x3ec29013	0.38000545
53	0x3ee880f4	0.45410883
54	0x3f0ee32c	0.55815387
55	0x3ea95d3c	0.33078945
56	0xbf030e34	-0.5119355
57	0x3cfc097d	0.030766243
58	0x3e9a555a	0.30143243
59	0x3e4b1e86	0.19835863
60	0x3eb9e454	0.36307013
61	0x3ed7f191	0.42176488
62	0x3e9af14c	0.3026222
63	0xbe49b861	-0.19699241

fc2.weight f4 [64, 64]
0	0xbb872a1c	-0.004124893
1	0x3d8cb799	0.06870956
2	0x3c8ae491	0.016954692
3	0x3dfaa5af	0.12238633
4	0x3d947efd	0.072507836
5	0x3caf7855	0.021419683
6	0xbccb0c34	-0.024786092
7	0xbc7b8fc4	-0.015354101
8	0xbd64a888	-0.055824786
9	0xbdb79628	-0.08964187
10	0xbdd808fe	-0.1054859
11	0x3e50a1d0	0.20374227
12	0x3dd675a7	0.10471659
13	0xbc9fc762	-0.019504253
14	0xbc0912fa	-0.008366341
15	0xbdf1273f	-0.11775064
16	0xbe86358e	-0.26212734
17	0x3e607b84	0.21922117
18	0xbde973f8	-0.113990724
19	0x3da465ed	0.08027253
20	0xbd32862b	-0.043584984
21	0x3e083183	0.13300137
22	0xbd824e6f	-0.06362616
23	0xbd23a9d4	-0.039956883
24	0xbd1fba8d	-0.038996268
25	0x3e2d69bc	0.16934866
26	0x3cf8c83a	0.030368913
27	0x3e502e9d	0.20330282
28	0xbd053851	-0.03252441
29	0xbe013640	-0.12618351
30	0xbdf768d8	-0.12080544
31	0x3dc25d8b	0.09490498
32	0x3e152ae1	0.14567138
33	0xbe0dcf3d	-0.13848586
34	0xbd137eec	-0.036009714
35	0x3ca821d3	0.020523941
36	0xbe3b10f5	-0.18268187
37	0x3d1e072e	0.038581066
38	0xbe22e871	-0.15908982
39	0xbda95a98	-0.082692325
40	0x3da62b78	0.0811376
41	0x3ba43cff	0.005012154
42	0xbca1589d	-0.019695574
43	0x3d308e3d	0.0431044
44	0x3c66fb0c	0.01409794
45	0x3c986d6a	0.01860686
46	0xbda4b6f0	-0.08042705
47	0xbda60792	-0.08106913
48	0xbd04e8a1	-0.032448415
49	0x3e83ea9c	0.2576493
50	0x3e57b04f	0.2106335
51	0x3e0a72ec	0.13520402
52	0x3d622599	0.055211637
53	0x3d9cc6a9	0.07655079
54	0x3e794cf7	0.24345766
55	0xbc148b6b	-0.009066443
56	0x3e212f77	0.15740763
57	0x3e8d7c19	0.27633741
58	0x3e2013c1	0.15632536
59	0xbd73113e	-0.059342615
60	0x3d9a000e	0.07519542
61	0x3df32355	0.118719734
62	0x3ddb1f1e	0.106992945
63	0x3e2d4724	0.16921669
64	0xbe0353ff	-0.1282501
65	0xbc7896c2	-0.015172662
66	0x3e6191ef	0.22028325
67	0xbe3afd8e	-0.18260786
68	0x3e825d97	0.25462028
69	0x3d13d6ed	0.03609364
70	0x3e15f677	0.146448
71	0x3ab653b9	0.0013910449
72	0xbd083b37	-0.033259597
73	0xbde7db66	-0.11321144
74	0x3e1c4b60	0.15263128
75	0x3e44c736	0.19216618
76	0x3dda6c03	0.10665133
77	0xbe93a170	-0.28834105
78	0x3de5b5c7	0.11216312
79	0xbdc2392f	-0.09483563
80	0xbd48aead	-0.04899471
81	0x3de8186a	0.113327816
82	0x3d705420	0.058673978
83	0xbcdc1980	-0.026867628
84	0x3e6274c7	0.2211486
85	0x3e2b70a1	0.16742183
86	0x3d42ba0e	0.047540717
87	0x3d29188b	0.04128317
88	0xbd5cac54	-0.053875282
89	0xbd19f976	-0.03759142
90	0xbc5babed	-0.0134076895
91	0x3d691f18	0.05691442
92	0x3e05e705	0.13076408
93	0x3d957a01	0.07298661
94	0x3c5463af	0.01296322
95	0xbd45749e	-0.048206918
96	0x3dc7feea	0.09765418
97	0x3dbcd35b	0.0922
98	0xbdacef90	-0.084441304
99	0x3d65dc99	0.05611858
100	0xbe184d59	-0.14873256
101	0x3cb6d7d9	0.022319721
102	0xbea9569c	-0.3307389
103	0xbbad70ec	-0.0052930024
104	0x3e6f9abf	0.23398875
105	0x3d793797	0.06084403
106	0x3e79fd50	0.24413037
107	0x3e21c16f	0.15796445
108	0x3e044b5f	0.12919377
109	0xbdb90e6a	-0.090359524
110	0x3cbf7c12	0.023374591
111	0xbdd947d7	-0.106094055
112	0x3d68117f	0.05665731
113	0xbd680ad6	-0.05665096
114	0xbc05b137	-0.008159927
115	0xba03f1c2	-0.0005033278
116	0x3e22470e	0.15847418
117	0x3e7f2e2d	0.24919958
118	0x3e00c85f	0.12576436
119	0x3df973a8	0.12180263
120	0xbca67dfa	-0.020323742
121	0xbe435740	-0.19076252
122	0x3e6f8e33	0.23394088
123	0x3c79861e	0.01522973
124	0xbdab8845	-0.08375601
125	0x3e5f0a55	0.21781285
126	0x3c4d2abc	0.012522396
127	0xbe9c26b6	-0.30498284
128	0x3da1d10e	0.07901202
129	0x3cfe3a77	0.031033738
130	0xbd001996	-0.0312744
131	0x3d70d485	0.058796424
132	0x3e0e2934	0.13882905
133	0x3d9e844e	0.07740079
134	0xbde2bc89	-0.110711165
135	0x3df2dac4	0.118581325
136	0x3dc92f07	0.09823423
137	0xbe67957a	-0.22615615
138	0xbd0c2579	-0.034215424
139	0xbd667cc6	-0.056271337
140	0x3ae8ce58	0.001776169
141	0x3ddf4f04	0.10903743
142	0xbd0e4bb9	-0.034740184
143	0xbc0f7efb	-0.008758302
144	0xbe0d3599	-0.13789977
145	0x3dcf6fc2	0.10128738
146	0xbe455b12	-0.19273022
147	0x3e258555	0.16164143
148	0xbbc40a94	-0.0059827063
149	0xbd04cb26	-0.0324203
150	0xbd15419d	-0.036439527
151	0xbd5ae77f	-0.053443428
152	0xbde09979	-0.109667726
153	0x3e02849e	0.12745902
154	0xbc04ddcc	-0.008109521
155	0x3eb2c30e	0.3491444
156	0xbe160184	-0.14649016
157	0xbdcf758b	-0.101298414
158	0x3d6af237	0.0573599
159	0x3cc816ec	0.024424993
160	0x3d9d6225	0.07684735
161	0x3d86c6f4	0.06580916
162	0x3d2abd20	0.04168427
163	0xbbaee349	-0.005337153
164	0xbdfabf71	-0.12243546
165	0xbdaa14b5	-0.08304731
166	0xbce50f1b	-0.027961304
167	0xbcb3ed2f	-0.021963684
168	0xbd6b301a	-0.05741892
169	0xbc156aed	-0.009119731
170	0xbe1c7820	-0.15280199
171	0x3ce37a01	0.027768137
172	0x3d4c83d7	0.04993042
173	0xbe144200	-0.14478302
174	0xbe160655	-0.14650853
175	0x3d93e668	0.07221681
176	0x3dafc433	0.08582344
177	0x3ea473f7	0.32119724
178	0x3e48bcfa	0.19603339
179	0xbc1cb9cc	-0.009565782
180	0x3e36cc94	0.17851478
181	0x3e31e9c9	0.17374338
182	0x3db42a42	0.087971225
183	0xbe13b64e	-0.14425012
184	0x3ec4e90c	0.3845905
185	0x3ea53388	0.32265878
186	0x3d3e03cf	0.04639035
187	0xbe33f5ed	-0.17574282
188	0x3db88399	0.09009475
189	0xbbe88ad9	-0.00709663
190	0x39c6900f	0.00037872835
191	0x3de8c803	0.11366274
192	0xba842c71	-0.0010084045
193	0xbcf14402	-0.029451374
194	0x3dfef714	0.1244947
195	0x3c5ca3dd	0.013466802
196	0x3e4163cb	0.18885724
197	0xbe249df3	-0.16075878
198	0x3db02825	0.08601407
199	0xbd209cdd	-0.039212096
200	0xbce9d0bd	-0.028541917
201	0xbdad06f0	-0.08448589
202	0x3d9451f8	0.07242197
203	0x3e46345d	0.19355913
204	0x3d5b5e2e	0.053556614
205	0x3d18951c	0.037251577
206	0x3d083960	0.033257842
207	0x3cd80a53	0.02637211
208	0xbe1d6ca7	-0.15373479
209	0x3e2b95f1	0.16756417
210	0xbe3c3a73	-0.18381672
211	0xbdac0058	-0.08398503
212	0x3d9b2bd7	0.07576721
213	0xbd99c9d2	-0.07509197
214	0xbe151993	-0.14560537
215	0x3d9fb1c5	0.07797579
216	0x3bec54d1	0.0072122593
217	0x3e3a4b4d	0.18192787
218	0xbdb83662	-0.08994748
219	0x3e37992f	0.17929529
220	0x3d025801	0.03182221
221	0xbc2d2be6	-0.010569548
222	0xbe27fe92	-0.16405705
223	0xbd493359	-0.049121235
224	0xbd4dc21d	-0.05023395
225	0xbdf3566e	-0.118817195
226	0x3d348854	0.044075325
227	0xbca33096	-0.019920629
228	0xbe8a702e	-0.2703871
229	0xbd665a11	-0.056238238
230	0x3cc93cbe	0.024565097
231	0x3d62986e	0.05532115
232	0x3d5bfb34	0.053706363
233	0x3cbcdcbf	0.023054479
234	0xbd30c6f2	-0.04315848
235	0xbdd30cb0	-0.10305154
236	0x3da111fc	0.07864758
237	0xbde15a78	-0.11003584
238	0x3dad3584	0.08457473
239	0xbd80150d	-0.06254015
240	0xbddf0232	-0.108890906
241	0x3e3528ad	0.17691298
242	0x3e184af4	0.14872342
243	0x3c8a8824	0.01691062
244	0x3e2824ca	0.16420284
245	0x3d1ebbb4	0.038753226
246	0x3d583847	0.052788045
247	0xbc443cfc	-0.01197743
248	0x3e9e9d1e	0.30979246
249	0x3e2cafbb	0.16863911
250	0x3d5d7bd5	0.054073174
251	0x3c6df770	0.014524326
252	0x3d417162	0.04722727
253	0xbd0e0363	-0.0346712
254	0xbb6d8227	-0.0036240907
255	0x3e509518	0.20369375

fc2.bias f4 [64]
0	0xbd3580b8	-0.04431221
1	0xbb54c21e	-0.0032464336
2	0xbd4e7b9a	-0.050410844
3	0x3d3582c8	0.044314176
4	0xbda4f56f	-0.08054625
5	0xbc872ec5	-0.016501794
6	0x3df7b202	0.12094499
7	0x3ddb8322	0.10718371
8	0xbddd5e86	-0.108090445
9	0xbd709c04	-0.058742538
10	0x3cfc48a7	0.030796362
11	0x3d35bd6e	0.044370107
12	0x3d1fef66	0.039046668
13	0x3d26d973	0.04073472
14	0xbd0dcda0	-0.034619927
15	0xbe12ea60	-0.1434722
16	0xbdc59b2c	-0.09648737
17	0xbd8e6a5d	-0.06953881
18	0xbde930e6	-0.1138628
19	0xbc33d525	-0.010976111
20	0xbc81673f	-0.015796302
21	0x3b3ceb1f	0.0028826667
22	0xbdd45202	-0.10367204
23	0x3d8a66e7	0.06757908
24	0xbd4d0275	-0.05005117
25	0x3e247338	0.16059577
26	0x3d7d7b1d	0.061884988
27	0x3e07780a	0.13229385
28	0x3cda58ec	0.02665373
29	0xbdb291b1	-0.08719195
30	0xbdecbe78	-0.115597665
31	0xbdc3349e	-0.0953152
32	0x3dfb1682	0.122601524
33	0xbd85a258	-0.06525105
34	0x3ce8b0e7	0.028404666
35	0xbbed972c	-0.007250687
36	0x3de06d51	0.109583504
37	0xbd61a1cb	-0.05508594
38	0x3d959a39	0.07304806
39	0x3e35b9e6	0.17746696
40	0xbd7dab3e	-0.061930887
41	0x3d8cf186	0.068820044
42	0x3c4b0383	0.012390974
43	0x3ce5476f	0.027988164
44	0x3dc9546b	0.098305546
45	0x3e473eae	0.19457504
46	0x3dcd302d	0.100189544
47	0x3c9660cc	0.018356703
48	0x3e3b027a	0.18262663
49	0x3dac5783	0.08415129
50	0x3bfe03cc	0.0077519175
51	0x3db1adeb	0.0867575
52	0x3cef92b1	0.029244753
53	0xbd272e23	-0.040815484
54	0x3d9fc669	0.078015156
55	0x3e2811a5	0.16412981
56	0xbd984aa5	-0.07436112
57	0x3d81f72a	0.06345971
58	0x3c9155e9	0.01774116
59	0x3dc2f141	0.09518672
60	0x3d87db8a	0.06633671
61	0x3d3c9cba	0.046047904
62	0x3e1d5990	0.15366197
63	0x3e1a6d6b	0.15080802

fc3.weight f4 [1, 64]
0	0xbe422313	-0.18958692
1	0xbe9238b6	-0.28558892
2	0xbeb5e434	-0.35525668
3	0xbe4985ff	-0.19680022
4	0x3e33f3a3	0.17573409
5	0x3eae01fe	0.33985895
6	0x3e836139	0.25660113
7	0xbeca42b2	-0.3950401
8	0x3d890ca0	0.06691861
9	0xbe14cf55	-0.14532216
10	0xbf069df4	-0.5258477
11	0x3eae3654	0.34025824
12	0x3ea49fc0	0.3215313
13	0xbf1d78e1	-0.6151257
14	0xbe624708	-0.22097409
15	0xbe8c9d5b	-0.27463803
16	0xbe9ecea2	-0.31017023
17	0xbe80d2c3	-0.25160798
18	0xbc9ef798	-0.019405171
19	0x3e66b554	0.22530109
20	0xbd9068c2	-0.07051231
21	0x3e272165	0.16321333
22	0xbf0ef5a1	-0.5584355
23	0xbe8375fc	-0.25675952
24	0x3e1b699e	0.15177009
25	0x3e362e9c	0.17791218
26	0xbdef658d	-0.11689291
27	0xbf7486cd	-0.9551819
28	0xbef2ddce	-0.4743485
29	0xbe315735	-0.17318423
30	0x3e56dd82	0.20982936
31	0xbe63f348	-0.22260773
32	0x3de2f179	0.110812135
33	0xbe8a9794	-0.2706877
34	0xbe5de964	-0.21671063
35	0xbee65db2	-0.4499336
36	0x3e3e57c5	0.18588169
37	0xbe42cdc0	-0.190238
38	0xbe280e27	-0.16411649
39	0x3ed49cc3	0.4152585
40	0xbd2b581e	-0.041832082
41	0xbccf0a1d	-0.025273377
42	0x3e82e25f	0.25563332
43	0xbe8b62eb	-0.27223906
44	0x3e875228	0.26429868
45	0x3e9c08a8	0.30475354
46	0xbe5b595e	-0.2142081
47	0xbe755b7e	-0.23960683
48	0x3e6a221b	0.22864573
49	0x3e8a6108	0.27027154
50	0xbe84cd58	-0.25937915
51	0xbeae1c8c	-0.34006155
52	0xbec23f1e	-0.3793878
53	0xbf4b1ba8	-0.79339075
54	0x3e4dd0d6	0.20099196
55	0x3e36d3be	0.1785421
56	0xbe09885a	-0.1343092
57	0xbe2eb898	-0.17062604
58	0x3e2de829	0.16983093
59	0x3e9cc3d2	0.3061815
60	0xbe922c04	-0.28549206
61	0xbe92e890	-0.28693056
62	0x3e64c17c	0.22339433
63	0x3e86c586	0.26322573
