model_save/critic.pth (torch, 20047 bytes, 5 tensors)

fc1.weight f4 [64, 4]
0	0x3f952b59	1.1653854
1	0x3f7152f4	0.942672
2	0x3eccb03f	0.39978215
3	0xbecf831b	-0.40529713
4	0x3ea1f14c	0.31629407
5	0xbdded5db	-0.108806334
6	0xbf23b32f	-0.6394529
7	0xbf57f03a	-0.8435093
8	0x3ee44866	0.44586486
9	0x3f9f7c2f	1.2459773
10	0x3dece047	0.11566215
11	0xbf1d57c8	-0.6146207
12	0x3d33aa76	0.043863736
13	0xbfdf8cd9	-1.7464858
14	0xbe671677	-0.22567163
15	0x3ec842b7	0.391134
16	0x3fbd382a	1.4782765
17	0x3fac9348	1.3482447
18	0xbe1f6cda	-0.15568867
19	0xbefd37b5	-0.49456564
20	0x3e869f4c	0.2629341
21	0x3de4e907	0.11177259
22	0x3f98560a	1.1901257
23	0x3f215737	0.63023704
24	0xbf3ba15a	-0.7329308
25	0x3f3b948d	0.73273546
26	0xbc3b00a5	-0.011413728
27	0x3f0e9f63	0.55711955
28	0x3f895ec7	1.0732049
29	0x3f0a98e0	0.5413952
30	0x3f4938bb	0.7860219
31	0xbe2419fd	-0.16025539
32	0x3e8f4f30	0.27990103
33	0x3f02d467	0.5110535
34	0x3ebaaa69	0.36458138
35	0x3ebd0e2e	0.3692488
36	0xbf5b7843	-0.8573038
37	0xbe1e0896	-0.15432963
38	0x3f01415b	0.5049035
39	0x3dee9a03	0.11650469
40	0xbf84c29c	-1.037189
41	0xbeb6e033	-0.35717925
42	0xbead45b9	-0.33842257
43	0xbdba4302	-0.09094812
44	0xbf039a2c	-0.5140712
45	0xbfbc1b3e	-1.4695814
46	0x3c94ad70	0.018149108
47	0x3d94c18e	0.0726348
48	0xbfcbd59a	-1.5924561
49	0xbebb01f3	-0.36524925
50	0x3ecab4d7	0.39591095
51	0xbeb47428	-0.3524487
52	0xbf37d154	-0.71803784
53	0xbf8a5301	-1.0806581
54	0x3eaa3c9f	0.33249375
55	0x3dfff570	0.12497985
56	0xbff9b326	-1.9507797
57	0x3e81084e	0.25201648
58	0xbeffc3c3	-0.49954042
59	0xbe47e2c0	-0.19520092
60	0xbf9579bd	-1.1677777
61	0xbea8d612	-0.32975823
62	0xbf302811	-0.68811136
63	0x3f1c7fd5	0.61132556
64	0x4008f0c5	2.1396954
65	0x3efed840	0.4977436
66	0x3f1fdab4	0.6244309
67	0x3e883575	0.26603284
68	0xc0280642	-2.625382
69	0x3ede369f	0.43401048
70	0xbead69c2	-0.3386975
71	0xbdc354aa	-0.09537633
72	0xbf5a17af	-0.8519239
73	0xbf3b594c	-0.7318313
74	0xbe97da62	-0.296588
75	0x3ddb5558	0.107096374
76	0xbf898ec9	-1.07467
77	0xbf6f31e1	-0.93435484
78	0xbe8f3cc6	-0.27976054
79	0xbcfe15e7	-0.031016303
80	0xbdc5faff	-0.09667014
81	0x3fd72304	1.6807561
82	0xbe837d74	-0.2568165
83	0xbf2b2fa4	-0.6686957
84	0xbf7b0339	-0.9805179
85	0xbe6c2474	-0.23060781
86	0xbe714715	-0.23562272
87	0xbeb93e3c	-0.36180294
88	0x3bb1797d	0.005416094
89	0xbfd76cf6	-1.6830127
90	0xbe81db7b	-0.25362763
91	0x3e8bd967	0.27314302
92	0xbea656f0	-0.32488203
93	0xc00d8df2	-2.2117887
94	0xbf06e51f	-0.5269336
95	0xbc229e2b	-0.0099254055
96	0xbf555f5a	-0.8334862
97	0x3f81554b	1.0104154
98	0x3efe0709	0.49614742
99	0x3f10adcc	0.56515193
100	0xbf50182a	-0.8128687
101	0x3fddc26c	1.7324958
102	0x3d4bb561	0.049733523
103	0xbd4b5a42	-0.049646623
104	0xbf5ebb82	-0.87004864
105	0x40131589	2.2981894
106	0x3f07034f	0.52739424
107	0x3dd7b3e8	0.10532361
108	0xbf36caae	-0.71403015
109	0xbfbcb44e	-1.4742525
110	0xbeaa7d92	-0.33298928
111	0xbd9e35e7	-0.07725125
112	0xc0071a7a	-2.110991
113	0x3f0bb19a	0.54567873
114	0x3e4c93d1	0.19978262
115	0xbe8d3f3b	-0.27587304
116	0x3dc4bac8	0.09605938
117	0x3ff16abf	1.8860701
118	0x3ea516dd	0.32244006
119	0x3e5fab83	0.2184277
120	0xbf9be9c1	-1.2180711
121	0x3fc861a3	1.5654796
122	0x3ec8f8bc	0.3925227
123	0x3e0041c3	0.12525086
124	0x3ef5e318	0.4802482
125	0xc00c3f74	-2.1913729
126	0xbf0bc9ec	-0.54604983
127	0xbd6bea35	-0.057596404
128	0xbf2efe56	-0.68356836
129	0xc003ee8d	-2.061435
130	0xbef3e711	-0.47637227
131	0xbd924207	-0.071415
132	0x3ec3b8b4	0.38226855
133	0x3ea2d615	0.31803957
134	0x3e443ece	0.19164583
135	0x3e06d4ae	0.13167068
136	0xbef9618e	-0.4870724
137	0xbfb94293	-1.4473442
138	0x3caea0f6	0.021316987
139	0x3d83bc6c	0.06432423
140	0xbfbff248	-1.4995813
141	0x3f766dda	0.9626137
142	0x3eb5c89e	0.3550462
143	0x3d833640	0.06406832
144	0xbebb5a86	-0.365925
145	0xbf820472	-1.0157607
146	0x3f30ae97	0.690164
147	0x3ceda479	0.02900909
148	0xbf4f022c	-0.8086269
149	0xbfaccbd9	-1.3499709
150	0x3d9d8078	0.07690519
151	0xbdd6cbc1	-0.10488082
152	0xbf8ac88d	-1.0842453
153	0xbe9d6f75	-0.30749097
154	0xbdd88857	-0.1057288
155	0x3f303c64	0.6884215
156	0x3fccc76d	1.599836
157	0x3ca23f93	0.019805705
158	0xbe1a4a23	-0.15067343
159	0x3f05bb3e	0.52238834
160	0xc01defdd	-2.467765
161	0xbeac96ee	-0.337089
162	0xbd59f7cc	-0.053214833
163	0x3eaad1e4	0.3336326
164	0xbfb70f84	-1.430161
165	0x3fa2c872	1.2717421
166	0x3ebb799c	0.36616218
167	0x3e382526	0.17982921
168	0xbfd1b609	-1.6383678
169	0x3fe2ae05	1.7709357
170	0x3effcef4	0.4996258
171	0xbdd0b56a	-0.10190852
172	0xbf614a53	-0.88004035
173	0xbf89517f	-1.0727996
174	0x3ef8abe2	0.48568636
175	0xbd769523	-0.06020082
176	0xbfa4acd8	-1.2865248
177	0x3d2d2d07	0.04227927
178	0x3f5dc0b3	0.8662216
179	0x3e6d6cb5	0.23186
180	0x3f8070ff	1.0034484
181	0xbf84e283	-1.0381626
182	0xbe43b497	-0.19111858
183	0x3d55abc0	0.052165747
184	0xbf386115	-0.72023135
185	0x3d2b0b8a	0.04175905
186	0x3e418c9d	0.18901296
187	0x3d6fa3b0	0.058505714
188	0xbfcc43ee	-1.595823
189	0xbf88f10c	-1.0698562
190	0xbe8f87e8	-0.28033376
191	0xbd081144	-0.03321959
192	0xbfb86b10	-1.4407673
193	0x3f7b207e	0.98096454
194	0x3ec7d546	0.39029902
195	0x3cac9e5c	0.021071605
196	0x3e9275d2	0.28605515
197	0x3fd558a4	1.6667676
198	0x3d9a96ba	0.0754828
199	0x3f1de773	0.6168129
200	0xbf6358f8	-0.8880763
201	0x3f73d2d2	0.9524356
202	0xbd40b4b3	-0.04704733
203	0x3dfadc39	0.122490354
204	0xbdf0f483	-0.11765387
205	0x4007394e	2.1128726
206	0x3f001ed1	0.5004702
207	0x3d29cf28	0.041457325
208	0xbf5d380a	-0.86413634
209	0x3fb5076b	1.4142889
210	0x3e92aeb7	0.28648922
211	0x3c58041a	0.013184572
212	0xbe45ec89	-0.19328512
213	0xbfb4d053	-1.4126076
214	0x3ea4ba88	0.32173562
215	0x3daabf48	0.08337265
216	0xbfa11845	-1.2585531
217	0x3fe9158a	1.8209698
218	0x3eee75ca	0.4657424
219	0x3d5fa757	0.054602947
220	0xbf59a373	-0.8501503
221	0xbf426a3d	-0.75943357
222	0xbe914d08	-0.28379083
223	0xbda9a4bf	-0.08283376
224	0xc01dd59d	-2.466163
225	0x3f31125c	0.6916864
226	0xbeb8617a	-0.3601187
227	0xbe1ec60c	-0.15505236
228	0xbf14eea5	-0.5817664
229	0x3f8e79b4	1.1130891
230	0xbc7cdeb3	-0.015433955
231	0x3dfd327d	0.123631455
232	0xbf893864	-1.0720334
233	0x3f83815f	1.0273856
234	0x3cde8b0d	0.027165914
235	0xbefdc551	-0.49564603
236	0x3f0c11e8	0.5471482
237	0x3e583165	0.21112593
238	0x3f31b5a7	0.69417804
239	0xbf247a58	-0.6424918
240	0x3f8b3d88	1.0878153
241	0x3f871cb6	1.0555637
242	0x3f3e677c	0.74376655
243	0x3e870a22	0.26374918
244	0xbf4adcd1	-0.7924319
245	0xbfbad204	-1.4595342
246	0xbd51ebd3	-0.05125029
247	0x3e2cc6cf	0.16872714
248	0x3f287228	0.6579919
249	0xbf951fc4	-1.1650319
250	0xbeaa4602	-0.33256537
251	0x3e905fd3	0.28198108
252	0xbfcff59b	-1.6246828
253	0x3fa74e9e	1.3070867
254	0x3ed1bcf4	0.40964472
255	0x3e2a32d6	0.16620955

fc1.bias f4 [64]
0	0x3eedbf7b	0.4643515
1	0xbdc96ba1	-0.09834982
2	0x3f53f398	0.8279357
3	0x3eb80236	0.35939187
4	0xbf8808d1	-1.062769
5	0xbec29e59	-0.38011435
6	0x3f838f09	1.0278026
7	0x3e5197d4	0.20468074
8	0x3f4d7d15	0.80268985
9	0x3f6aa758	0.91661596
10	0x3f886def	1.0658549
11	0x3f4b5551	0.7942706
12	0x3f48b494	0.7840054
13	0x3f2b6954	0.6695759
14	0x3ddebb1c	0.10875532
15	0xbe13a87e	-0.14419743
16	0xbed16f57	-0.40905258
17	0x3d965d14	0.07341972
18	0x3ef1c976	0.47224015
19	0x3ed25b0a	0.41085082
20	0x3f6d05fa	0.92587245
21	0x3f88c35d	1.068462
22	0x3f3580c9	0.70899636
23	0xbed06f2c	-0.40709817
24	0x3f0ea1b6	0.557155
25	0x3f35f488	0.7107625
26	0x3d7b6b08	0.06138137
27	0x3e55c59e	0.20876166
28	0x3f47e6e1	0.7808667
29	0x3e5722e4	0.21009403
30	0x3efe3a0a	0.49653655
31	0xbf6c4b44	-0.92302346
32	0xbd3e87a6	-0.046516083
33	0x3f52e68f	0.82383054
34	0x3f4679bb	0.77529496
35	0x3f24c468	0.6436219
36	0x3eb06aee	0.3445658
37	0x3f959c1a	1.1688263
38	0x3f412619	0.7544876
39	0x3e2de63d	0.1698236
40	0x3f0f745e	0.5603694
41	0x3eced75e	0.40398687
42	0x3ed4c126	0.4155361
43	0x3f2f2d09	0.68428093
44	0xbf278ecc	-0.65452266
45	0xbe079706	-0.13241205
46	0x3f3c0bb9	0.7345539
47	0x3f2bb489	0.6707235
48	0x3f55fc41	0.83588034
49	0x3eb01e4b	0.34398112
50	0x3f787c07	0.9706425
51	0xbedd6165	-0.4323837
52	0x3e85c20c	0.2612461
53	0x3e57da10	0.21079278
54	0x3ed9b2ac	0.42519128
55	0x3f87dceb	1.0614294
56	0x3e4adf52	0.19811752
57	0x3f445008	0.7668462
58	0x3f4bd509	0.7962194
59	0xbf0a5470	-0.5403509
60	0xbea96476	-0.33084458
61	0x3ee5dbec	0.4489435
62	0x3f12c7f1	0.57336336
63	0x3f0eefcb	0.55834645

fc2.weight f4 [64, 64]
0	0xbf1fb0e7	-0.62379307
1	0x3f417a92	0.7557765
2	0xb5f35290	-1.812894e-06
3	0x3f712797	0.94201034
4	0x3e3e3902	0.18576434
5	0xbe15956e	-0.14607784
6	0xbe3b017a	-0.18262282
7	0xbe237f1d	-0.15966459
8	0x3e812635	0.25224462
9	0x3e05b43d	0.13057037
10	0xbf290407	-0.6602177
11	0x3f207503	0.62678546
12	0x3dd7789e	0.10521053
13	0x3f265fcb	0.6498992
14	0x3f86b914	1.0525231
15	0x3f9daa17	1.2317532
16	0xbe77109a	-0.24127427
17	0x3fc0fdf2	1.5077498
18	0xbfd36993	-1.6516594
19	0xbf264f45	-0.64964706
20	0xbc2cf675	-0.010556807
21	0xbeb31c95	-0.34982744
22	0x3fa3f656	1.2809551
23	0xbf5ff5a2	-0.8748418
24	0xbe9f25ec	-0.3108362
25	0x3e464f20	0.19366121
26	0xbfa217f7	-1.2663563
27	0xbf486e52	-0.78293335
28	0x3fe59e6a	1.7938969
29	0xbfa4b41f	-1.2867469
30	0xbe9acebd	-0.30235854
31	0x3e5bd9e4	0.21469837
32	0xbf8d3d1b	-1.1034273
33	0x3e06762c	0.13131016
34	0x3eaf5ecd	0.34252015
35	0xbe4969b7	-0.19669233
36	0x3e143f1c	0.144772
37	0x3eafc233	0.3432785
38	0x3f0bc924	0.5460379
39	0x3f5ef6da	0.87095416
40	0x3f8fb90d	1.1228348
41	0xbed8ad3b	-0.42319664
42	0x3f7aca14	0.97964597
43	0xbcc81e7e	-0.024428602
44	0x3e5e56ec	0.21712846
45	0x3ec870e8	0.3914864
46	0xbe8c292c	-0.27375162
47	0xbed4e070	-0.41577482
48	0xbe82a424	-0.25515854
49	0xbf086f6f	-0.53295034
50	0x401b0c32	2.4226193
51	0xbfbe2904	-1.4856267
52	0xbeef7082	-0.46765524
53	0x3f8e29dd	1.1106526
54	0xbedfb757	-0.43694565
55	0xbf6120a5	-0.87940437
56	0x3e413359	0.18867244
57	0xbd81f1f7	-0.06344979
58	0x3f416c10	0.75555515
59	0xbe98daeb	-0.2985452
60	0xbe184e79	-0.14873685
61	0xbfabc9c0	-1.3420944
62	0x3f348aa6	0.7052406
63	0xbe69a86d	-0.22818156
64	0x3e6f88fb	0.23392098
65	0xbdad3f45	-0.08459333
66	0x3e936a65	0.2879211
67	0xbf25885e	-0.64661205
68	0x3f97f94c	1.1872954
69	0xbe175726	-0.14779338
70	0x3ea872eb	0.32900175
71	0xbebdc641	-0.37065318
72	0x3e4c1f04	0.19933707
73	0x3f258619	0.6465774
74	0x3eb94b98	0.36190486
75	0x3f3fb6b4	0.7488816
76	0x3f0e8e30	0.5568571
77	0x3f183d19	0.5946823
78	0xbe533d65	-0.20628889
79	0xbe80abc2	-0.2513104
80	0x3f8e6aff	1.1126403
81	0x3e70bd59	0.2350973
82	0x3e78bf9f	0.24291848
83	0x3e8f224b	0.2795585
84	0x3deb57e8	0.11491376
85	0x3ee67881	0.45013812
86	0xbdfa2361	-0.12213779
87	0x3e92e373	0.28689155
88	0x3eca9e5a	0.39573938
89	0x3e0619aa	0.13095728
90	0x3da68569	0.08130915
91	0x3ecf967a	0.40544492
92	0xbe2b13ed	-0.1670682
93	0xbd4e0d09	-0.0503054
94	0x3e86c125	0.26319233
95	0x3d6c94b3	0.057758998
96	0x3ec79819	0.3898323
97	0xbee41131	-0.44544366
98	0x3f16a908	0.5885167
99	0x3eee5523	0.4654933
100	0xbea8d41b	-0.32974324
101	0x3f3751d3	0.7160923
102	0x3eb99d9d	0.36253062
103	0x3f1c6a01	0.6109925
104	0xbcff426b	-0.0311596
105	0x3e863f99	0.26220396
106	0x3cdf876a	0.02728625
107	0x3f353c15	0.707948
108	0xbf0fba0f	-0.5614328
109	0x3eea2460	0.45730877
110	0x3f0ddb57	0.5541281
111	0x3e52ac45	0.20573528
112	0x3e76a913	0.24087934
113	0xbca4853e	-0.020083066
114	0x3defc479	0.11707396
115	0x3e531e86	0.20617113
116	0x3d599706	0.053122543
117	0xbfa2ca8f	-1.2718066
118	0x3d449ca6	0.048000954
119	0x3eec0b1f	0.46102235
120	0x3e81510e	0.25257152
121	0x3d458745	0.048224706
122	0xbc4c78c8	-0.012479968
123	0xbea0ba16	-0.31391972
124	0xbe43aab5	-0.19108088
125	0x3f3bcad1	0.7335635
126	0x3efd181a	0.4943245
127	0x3e97542e	0.29556412
128	0x3e3a9388	0.18220341
129	0xbe3f289c	-0.18667835
130	0x3e35ea8b	0.17765252
131	0xbf22affd	-0.63549787
132	0x3f79bcd3	0.9755375
133	0xbe1bcc3f	-0.15214632
134	0x3e3fd0cf	0.18731998
135	0xbe2b0603	-0.16701512
136	0x3e98ade8	0.2982018
137	0x3f0ddd51	0.5541583
138	0x3ee3cd33	0.44492492
139	0x3f276df7	0.6540217
140	0x3eef8586	0.46781558
141	0x3efb7e94	0.4912001
142	0xbe67f479	-0.22651853
143	0xbe8d2cbc	-0.27573192
144	0x3f9482e0	1.160244
145	0x3e853c7c	0.26022708
146	0x3e89bd3c	0.26902187
147	0x3e9965d7	0.2996051
148	0xbd0e355e	-0.034718864
149	0x3ee973f9	0.45596293
150	0xbe6e6a2d	-0.2328269
151	0x3e78f6f2	0.24312952
152	0x3ef321fd	0.47486869
153	0x3e3c9e13	0.18419676
154	0x3d4c40f6	0.04986664
155	0x3ef804dc	0.48441207
156	0xbe3e2d52	-0.18571976
157	0xbe22258f	-0.1583464
158	0x3e3a128f	0.18171142
159	0xbdd69790	-0.10478127
160	0x3e6f71be	0.23383233
161	0xbdcbda38	-0.09953731
162	0x3ee1d2a9	0.44106033
163	0x3e943be6	0.2895195
164	0xbe3d3010	-0.18475366
165	0x3f13ce96	0.577371
166	0x3ef1f17a	0.47254544
167	0x3ef1f65b	0.47258267
168	0x3d5d9bf6	0.054103814
169	0x3e968ab6	0.29402703
170	0x3dec25d3	0.11530652
171	0x3f46db7f	0.77678674
172	0xbe02d47d	-0.1277637
173	0x3f1a006e	0.60156906
174	0x3f094b11	0.5363017
175	0x3e8fde86	0.2809946
176	0x3e1ff878	0.15622127
177	0xbe516c48	-0.20451462
178	0x3de88894	0.11354175
179	0x3d8d17b5	0.068892874
180	0x3e89c841	0.26910594
181	0xbf9e9ded	-1.2391945
182	0x3e2912c2	0.16511062
183	0x3f1a2b6a	0.60222495
184	0x3ebf6b60	0.37386608
185	0x3e6c47e1	0.23074295
186	0xbcb7c0e4	-0.022430845
187	0xbd7afcfd	-0.061276425
188	0xbe93c8db	-0.28864178
189	0x3f0cd074	0.55005574
190	0x3f2b11ac	0.6682384
191	0x3ec61aee	0.3869242
192	0x3c6d9330	0.014500424
193	0xbdb07a6c	-0.086171
194	0xbdc28492	-0.09497942
195	0x3cbbf2f8	0.022943005
196	0xbd7d13a8	-0.061786324
197	0x3da181e0	0.078861
198	0xbc84a5d4	-0.016192354
199	0xbdae2dea	-0.08504851
200	0xbd11b609	-0.035573993
201	0xbc04035a	-0.00805744
202	0xbcf7f338	-0.030267343
203	0x3d9c4c31	0.0763172
204	0xbe02c2c5	-0.12769611
205	0xbda3e3dc	-0.08002445
206	0xbddb63bc	-0.10712382
207	0xbd17cee8	-0.037062556
208	0xbc4c3d10	-0.01246573
209	0x3d5a89b4	0.05335398
210	0x3cc08dd0	0.023505121
211	0x3cab1f72	0.020889018
212	0xbe2632c1	-0.16230299
213	0x3b911f74	0.0044287983
214	0x3c67bdcb	0.014144371
215	0x3d382612	0.04495818
216	0xbd925c62	-0.07146527
217	0xbd4a01c7	-0.0493181
218	0x3d92b291	0.07162965
219	0xbe1f14fb	-0.15535347
220	0xbb911b66	-0.004428315
221	0xbdbaae1a	-0.091152385
222	0xbcf41d23	-0.02979905
223	0x3bf4ad00	0.0074669123
224	0xbd1a20a8	-0.0376288
225	0xbcc28ea9	-0.023749666
226	0xb9567e15	-0.000204556
227	0xbdd2796d	-0.102770664
228	0xbde091f6	-0.1096534
229	0xbc02ddef	-0.007987483
230	0xbd82c2e7	-0.06384831
231	0x3da3778c	0.07981786
232	0x3c7cdc1d	0.0154333385
233	0x3b00c1a3	0.0019646666
234	0xbe0927b2	-0.13394049
235	0xbcc226eb	-0.023700198
236	0xbbbb9a3b	-0.005725173
237	0xbdfe02e4	-0.12402895
238	0x3dad51ff	0.08462905
239	0xbd10ca34	-0.035349086
240	0xbdaf18c6	-0.08549647
241	0x3da29cda	0.07940073
242	0x3ae4aca4	0.001744647
243	0x3c23796b	0.009977679
244	0x3dc52198	0.09625548
245	0xbd822d64	-0.06356314
246	0xb918bf6e	-0.00014567163
247	0xbe0f3429	-0.13984741
248	0xbdb3b7e8	-0.08775312
249	0xbde49b28	-0.11162406
250	0xbdb71a0d	-0.08940516
251	0xbdd5d4cd	-0.10440979
252	0x3dabaace	0.08382188
253	0xbdfcdd2f	-0.12346875
254	0xbe0640ac	-0.13110608
255	0xbe06865a	-0.13137189

fc2.bias f4 [64]
0	0x3f0a4f5e	0.54027355
1	0x3e72e668	0.23720706
2	0x3dfe37f0	0.12413013
3	0xbcd5a5e4	-0.02608008
4	0x3e870c79	0.26376703
5	0x3dbcbdb0	0.092158675
6	0x3deb8636	0.11500208
7	0x3f23d7fb	0.64001435
8	0x3f361c17	0.7113661
9	0x3e2cc2a6	0.16871127
10	0xbcd44bbd	-0.025915021
11	0x3e903f35	0.28173223
12	0x3e62bc3d	0.2214212
13	0x3e8395a9	0.2570012
14	0x3dcd23b7	0.10016578
15	0x3e51ce33	0.20488815
16	0x3d0ec160	0.034852386
17	0xbdc6dd89	-0.09710223
18	0x3e6fe6cd	0.23427887
19	0x3d52bd58	0.051450104
20	0x3e315335	0.17316897
21	0x3eb466d5	0.35234705
22	0x3e4dbc04	0.20091254
23	0x3e8dcae2	0.2769385
24	0x3e9d0f62	0.306758
25	0x3e89b23f	0.26893803
26	0x3e947901	0.2899857
27	0x3b55c6fe	0.003261983
28	0x3d144068	0.036194235
29	0x3e01a763	0.12661509
30	0x3e9954f7	0.29947636
31	0x3deef7f1	0.11668385
32	0x3ef7ae4d	0.48375168
33	0x3e89143d	0.26773253
34	0x3f1eed86	0.6208118
35	0x3def5a75	0.11687175
36	0x3e8c6b5e	0.27425665
37	0x3e18b888	0.14914143
38	0x3e1e22f8	0.15443027
39	0x3e7a080e	0.24417135
40	0x3ea87278	0.32899833
41	0x3e47205b	0.19445936
42	0x3d94608c	0.07244977
43	0x3f130f61	0.5744534
44	0x3e6fddaf	0.2342441
45	0x3f276d1a	0.6540085
46	0x3f0f1489	0.5589071
47	0xbe0f521c	-0.13996166
48	0x3e6a6fa8	0.22894156
49	0x3e971388	0.2950709
50	0xbd283b98	-0.041072458
51	0x3dcbb8db	0.09947368
52	0x3e8e6169	0.27808693
53	0x3ea11f64	0.31469262
54	0x3e26553d	0.16243453
55	0x3e6d86d9	0.23195972
56	0x3e67132c	0.22565907
57	0xbca61af4	-0.020276524
58	0xbd899d0a	-0.06719406
59	0x3e5d18fa	0.21591559
60	0x3e593839	0.21212853
61	0x3f1359cd	0.575589
62	0x3ee4fb9f	0.44723222
63	0x3dd7d616	0.105388805

fc3.weight f4 [1, 64]
0	0x402e8706	2.7269912
1	0xbedf7ed9	-0.43651465
2	0xbf211405	-0.6292117
3	0xbd78b99a	-0.06072388
4	0xbf39ff4c	-0.7265518
5	0xbec039de	-0.3754415
6	0xbf44faf7	-0.7694544
7	0x40552bde	3.3308024
8	0x403ece82	2.9813542
9	0xbeff73aa	-0.49892932
10	0x3db5d753	0.088789605
11	0xbf9f6e74	-1.2455583
12	0xbefa165b	-0.4884518
13	0xbec9fdeb	-0.39451537
14	0xbedd0923	-0.43171033
15	0x40318d22	2.774239
16	0x3dba98b8	0.0911116
17	0x3d4d57da	0.05013261
18	0x3fe36421	1.7764932
19	0x3d0bff0a	0.03417877
20	0xbf366d36	-0.7126039
21	0xbeefab4e	-0.46810383
22	0xbed8d973	-0.423534
23	0xbeca70be	-0.3953914
24	0xbede8a0a	-0.4346469
25	0xbf094ab8	-0.53629637
26	0xbefe87f4	-0.497131
27	0x3fc5e11a	1.545932
28	0xbd853240	-0.06503725
29	0xbed23b7c	-0.41061008
30	0xbefeb710	-0.4974904
31	0xbf792e2e	-0.9733609
32	0x3fd89ed8	1.6923475
33	0x3fa99d25	1.3251082
34	0x3ff1d18c	1.8892074
35	0xbf01248e	-0.50446403
36	0xbef6e5ee	-0.48222297
37	0xbec9ac94	-0.3938948
38	0xbec8ca93	-0.39217052
39	0xbf1700ad	-0.58985406
40	0xbee85656	-0.4537837
41	0xbeec0e49	-0.4610465
42	0x3fbc0f6b	1.4692205
43	0x3fdf7454	1.7457376
44	0xbf08fdaf	-0.5351209
45	0x4004db14	2.0758715
46	0x4075f284	3.842927
47	0x3cc3b088	0.023887888
48	0xbf08b786	-0.53405035
49	0xbefb166a	-0.49040538
50	0x3cfa558e	0.030558374
51	0x3ca42007	0.020034803
52	0xbece5ce0	-0.40305233
53	0xbefac90e	-0.48981518
54	0xbeef641e	-0.4675607
55	0xbee68dde	-0.4503011
56	0xbf05abe7	-0.5221543
57	0xb9bf34c9	-0.00036469687
58	0xbd4055f9	-0.04695699
59	0xbeff5bec	-0.49874818
60	0xbee566b0	-0.44804907
61	0x40880b99	4.2514157
62	0x4056f871	3.3589137
63	0xbf026704	-0.5093844
